model/model.pth (torch, 89871 bytes, 8 tensors)

conv1.weight f4 [10, 1, 5, 5]
0	0x3e013f2b	0.12621753
1	0xbdce7929	-0.10081703
2	0xbdd12ca4	-0.10213593
3	0x3c92cf2b	0.017921051
4	0xbe6d09c7	-0.23148261
5	0x3e287a1e	0.16452834
6	0xbd076233	-0.033052634
7	0x3d9470f4	0.072481066
8	0x3c59439d	0.013260749
9	0xbcb32b98	-0.021871373
10	0x3e0ab259	0.13544597
11	0x3d9c2829	0.076248474
12	0x3e02cecc	0.12774199
13	0xbc46540a	-0.012104997
14	0x3d23d9ed	0.040002752
15	0x3d02d06e	0.031937055
16	0x3db789cf	0.08961832
17	0x3d6ae6e4	0.0573491
18	0x3e6b13a3	0.2295671
19	0x3df07eeb	0.11742958
20	0xbd9ea599	-0.07746429
21	0xbe0398a7	-0.12851201
22	0xbd58fbd8	-0.052974552
23	0xbdc60ccd	-0.0967041
24	0xbd3f744c	-0.04674177
25	0x3d8d8907	0.069109015
26	0x3e66b014	0.22528106
27	0x3df808e1	0.121110685
28	0xbea3b2e6	-0.31972426
29	0xbd23b1b3	-0.03996439
30	0x3e1b6008	0.15173352
31	0x3ea3483e	0.31891054
32	0x3e099e0f	0.13439201
33	0xbe97d6c5	-0.29656044
34	0xbea03f6c	-0.31298387
35	0x3d3413b4	0.043964103
36	0x3ea8e8d2	0.32990128
37	0xbcd70bfc	-0.026250832
38	0xbc0c009d	-0.008545068
39	0xbe37b020	-0.1793828
40	0x3ea4b9a7	0.32172891
41	0x3d4238ec	0.047417566
42	0x3e39f1d3	0.18158655
43	0xbcb81eaa	-0.02247556
44	0xbdf9daaa	-0.1219991
45	0x3e503014	0.2033084
46	0xbb481135	-0.0030527834
47	0x3dff3fce	0.12463342
48	0xbc9d730a	-0.019219894
49	0x3c451fa1	0.012031467
50	0xbe8496fa	-0.25896436
51	0xbe00c6c4	-0.12575823
52	0x3e2b3e20	0.16722918
53	0x3d8df78a	0.0693198
54	0x3e94909d	0.2901658
55	0x3e071965	0.13193281
56	0x3d02bf40	0.03192067
57	0x3c35b3a4	0.011090193
58	0x3e900bb6	0.28133935
59	0x3e07bfcc	0.13256758
60	0xbdc58475	-0.09644405
61	0x3e6ea49f	0.23304985
62	0x3e95463a	0.2915514
63	0x3e9e2971	0.30890992
64	0xbdd2bf73	-0.10290422
65	0x3cd77d06	0.026304733
66	0x3dd40665	0.10352782
67	0x3e1d267f	0.15346716
68	0xbdd3824a	-0.10327585
69	0xbe33f80c	-0.17575091
70	0x3e0e982d	0.13925238
71	0x3cac2ae3	0.021016544
72	0x3e218dfa	0.15776816
73	0x3c5f8d7c	0.013644572
74	0x3d08b2d1	0.033373658
75	0x3db32bd4	0.08748594
76	0x3e127d98	0.14305723
77	0x3e2679a9	0.16257347
78	0xbe126f5a	-0.1430029
79	0x3e09036c	0.13380212
80	0xbe166bea	-0.14689603
81	0xbe0d22df	-0.13782834
82	0x3c837631	0.016047569
83	0xbd0190d9	-0.031632278
84	0x3df7a1e0	0.12091422
85	0xbe07ed8c	-0.1327421
86	0xbe459d0c	-0.1929819
87	0x3ddabe1f	0.10680794
88	0xbd873785	-0.066023864
89	0x3dad65d8	0.08466691
90	0x3d5040a3	0.050842892
91	0xbe330d17	-0.17485462
92	0xbc8f4059	-0.017486738
93	0xbbc0dc73	-0.0058856546
94	0xbe30e6b7	-0.1727551
95	0xbdc3bb45	-0.09557203
96	0x3d57046f	0.052494463
97	0xbc62644c	-0.013817858
98	0xbe0a6a08	-0.1351701
99	0xbdcee156	-0.10101573
100	0x3e962e25	0.2933208
101	0x3dc28652	0.09498276
102	0x3e717c4a	0.23582569
103	0x3e10dabe	0.14145944
104	0xbe159608	-0.14608014
105	0xbc215cb4	-0.009848762
106	0x3eea3def	0.45750377
107	0x3e86cdfa	0.26329023
108	0x3e8a289e	0.26984113
109	0x3dd36996	0.10322873
110	0x3e900810	0.2813115
111	0x3efb9c4b	0.4914268
112	0x3ef0da88	0.47041726
113	0x3bc9e9fa	0.0061619254
114	0x3e022562	0.12709573
115	0x3e9ad735	0.30242315
116	0x3eb8b866	0.36078185
117	0x3e869ab7	0.26289913
118	0xbd960488	-0.07325083
119	0xbd738a30	-0.059457958
120	0xbddade98	-0.10686988
121	0x3d9a5de4	0.075374395
122	0x3e6aaf9a	0.22918549
123	0xbdc6b7a3	-0.09702995
124	0x3e43f6c1	0.19137098
125	0xbdfd9be0	-0.123832464
126	0xbe586a48	-0.21134293
127	0xbc6322b3	-0.013863253
128	0x3e8a012a	0.26954013
129	0x3eb7f32a	0.35927707
130	0xbdad90a5	-0.084748544
131	0x3dbffa9b	0.09373971
132	0x3e9ecd06	0.31015795
133	0x3eb442ab	0.35207114
134	0x3e91fc19	0.28512648
135	0x3e4e4d94	0.20146781
136	0x3e4a1d61	0.1973777
137	0x3e3bc7dc	0.18337959
138	0x3d0d7ae8	0.03454104
139	0xbda9c984	-0.08290389
140	0xbda89184	-0.0823088
141	0xbb559769	-0.0032591468
142	0xbd45ffbb	-0.048339587
143	0x3e40c493	0.18824987
144	0x3df25a89	0.118336745
145	0xbdaf1ed2	-0.085508004
146	0x3d69a723	0.05704416
147	0x3dd6c018	0.10485858
148	0x3e418c92	0.1890128
149	0x3e36e01e	0.17858931
150	0xbdc23dca	-0.094844416
151	0x3e2b921c	0.16754955
152	0xbca7b192	-0.020470414
153	0x3cb94ffa	0.022621144
154	0xbe31f4de	-0.17378566
155	0xbe20d761	-0.1570716
156	0xbe0ff5a1	-0.14058544
157	0xbda196f4	-0.0789012
158	0x3e2ea179	0.17053784
159	0xbd77789b	-0.060417753
160	0xbe2d6618	-0.16933477
161	0x3da2a308	0.07941252
162	0x3dd9225d	0.106022574
163	0x3e2eea67	0.17081605
164	0xbdd6a38f	-0.10480415
165	0x3d6a18ea	0.057152666
166	0xbd075bf0	-0.033046663
167	0x3cf738a9	0.030178385
168	0xbdcf5459	-0.1012351
169	0xbd8f851a	-0.07007809
170	0xbca60ac0	-0.020268798
171	0x3e1a5d56	0.15074667
172	0x3dff2751	0.12458671
173	0x3df9502a	0.12173493
174	0x3e7bedb8	0.24602401
175	0x3e3f5e52	0.18688324
176	0x3e069bf9	0.13145436
177	0x3a684027	0.0008859657
178	0xbe1a78bf	-0.15085123
179	0x3e05c0e1	0.13061859
180	0xbd49bded	-0.049253393
181	0xbcd58441	-0.02606404
182	0xbe4189a8	-0.18900168
183	0xbda4cadd	-0.080465056
184	0xbe3524ec	-0.17689866
185	0x3e438abf	0.19095896
186	0xbe2beaa1	-0.16788723
187	0xbe27cfae	-0.16387817
188	0xbd19be45	-0.03753497
189	0xbe04bd2f	-0.12962793
190	0x3de5fc82	0.11229803
191	0xbca1bbbf	-0.019742845
192	0xbd09ed4c	-0.03367357
193	0x3d728112	0.059205122
194	0x3e47bcf2	0.1950567
195	0xbda1cfbe	-0.07900952
196	0x3e4d5846	0.20053205
197	0x3e843bb2	0.25826794
198	0x3e95b392	0.29238564
199	0xbd9297a7	-0.07157832
200	0x3d7d5c1c	0.06185542
201	0xbe0b44f7	-0.13600527
202	0x3e5bf1b9	0.21478929
203	0x3b900106	0.0043946533
204	0x3e644f00	0.22295761
205	0x3d01ed4a	0.031720437
206	0x3ca15b62	0.019696895
207	0x3d8ebdec	0.069698185
208	0x3e2257ce	0.15853807
209	0x3e71dfbe	0.23620507
210	0x3d2d0405	0.04224016
211	0x3d9d9ef9	0.07696337
212	0xbe048a37	-0.1294335
213	0x3e7e21ee	0.2481763
214	0x3e9ae7e4	0.30255044
215	0x3e043abc	0.1291303
216	0x3de29e04	0.11065295
217	0xbe203184	-0.15643889
218	0xbd35e001	-0.04440308
219	0x3e7bc408	0.24586499
220	0xbe79e4fd	-0.24403758
221	0x3dc095ba	0.09403558
222	0xbe4e5281	-0.2014866
223	0xbe1d8413	-0.15382414
224	0x3de96360	0.113959074
225	0xbdf1f5ce	-0.11814462
226	0xb9757062	-0.00023406887
227	0x3e828e66	0.25499266
228	0x3e9aa777	0.3020589
229	0x3e9d8dab	0.30772147
230	0xbcdfee28	-0.027335241
231	0xbe033669	-0.12813725
232	0x3e96cfdc	0.2945546
233	0x3da31c64	0.079643995
234	0x3c54add5	0.012980898
235	0x3d1e7103	0.038681995
236	0xbe0d71aa	-0.1381289
237	0x3e37d126	0.17950878
238	0x3e446177	0.19177805
239	0xbde666f1	-0.11250103
240	0xbe411c6f	-0.18858503
241	0xbcddfec4	-0.02709902
242	0x3dd0d128	0.101961434
243	0x3cb69f35	0.022292713
244	0xbdb8cd69	-0.09023554
245	0xbced4545	-0.028963694
246	0xbe51697b	-0.20450394
247	0xbe0bea51	-0.13663603
248	0xbe02639c	-0.1273331
249	0x3e153a39	0.14572991

conv1.bias f4 [10]
0	0x3e42d2bf	0.19025706
1	0xbd4f26e9	-0.050574217
2	0x3d79b264	0.060961142
3	0x3df6006f	0.120118015
4	0x3e19e2d7	0.15027939
5	0xbca59292	-0.020211492
6	0x3e0494d5	0.129474
7	0x3e049cdd	0.12950464
8	0x3cd3fc3b	0.025877109
9	0x3cc8061d	0.024416978

conv2.weight f4 [20, 10, 5, 5]
0	0x3d4d91c7	0.050187852
1	0x3d03383b	0.032036047
2	0xbd86d970	-0.06584442
3	0x3d4d83ee	0.050174646
4	0x3cdbb3a6	0.026819061
5	0xbd2daea2	-0.04240287
6	0x3ce13ebd	0.027495736
7	0xbd6a981c	-0.05727397
8	0x3d9457b1	0.07243288
9	0xbc19619a	-0.009361649
10	0x3ccb225a	0.024796654
11	0x3ce4767f	0.027888535
12	0x3cea8425	0.028627465
13	0x3d999672	0.07499398
14	0xbb8c8766	-0.0042886017
15	0xbd37c457	-0.04486498
16	0xbd611749	-0.054953847
17	0x3b973bd8	0.004615288
18	0xbcdbe948	-0.026844636
19	0xbbe5d08a	-0.007013385
20	0xbc90d4a4	-0.01767952
21	0x3cc0f31e	0.023553427
22	0x3d8a633c	0.06757209
23	0x3d00210a	0.03128151
24	0xbc8caaee	-0.01717135
25	0xbd0a183e	-0.033714525
26	0xbda41aec	-0.080129474
27	0x3c0f2db1	0.008738921
28	0x3c23d3d6	0.009999236
29	0x3d6cf081	0.05784655
30	0xbc13259f	-0.008981138
31	0xbd665a7e	-0.056238644
32	0x3d35f1d8	0.044420093
33	0x3d690039	0.056884978
34	0x3ca5a856	0.02022187
35	0xbd602fd0	-0.054733098
36	0xbcd300c7	-0.025757207
37	0x3cdc555c	0.026896171
38	0xbd074f79	-0.033034775
39	0xbd7fd371	-0.062457506
40	0xbcb40035	-0.021972755
41	0xbbc38587	-0.0059668454
42	0x3ceb718e	0.02874067
43	0xbd62cdf9	-0.055372212
44	0xbd601cfa	-0.054715134
45	0xbc83af96	-0.016074937
46	0xbd29960b	-0.041402858
47	0x3d248c36	0.040172778
48	0xbce3ab52	-0.027791653
49	0x3ce4e90a	0.027943153
50	0xbd04df2e	-0.032439403
51	0xbd570e58	-0.052503914
52	0xbd124d1b	-0.035718065
53	0x3c430d0f	0.011904969
54	0x3d481242	0.048845537
55	0xbda52197	-0.080630474
56	0xbbcd4f79	-0.0062655774
57	0x3dab4532	0.08362807
58	0x3d8742ff	0.06604575
59	0x3c9ca034	0.01911936
60	0x3c0bbad7	0.008528433
61	0x3d37a742	0.044837244
62	0x3d0fd7b8	0.035117835
63	0xbc95a82d	-0.018268669
64	0x3cc0e0fa	0.023544777
65	0xbc3285c6	-0.010896152
66	0xbcdc8fe9	-0.02692409
67	0xbcace73f	-0.02110636
68	0xbda3c0ba	-0.07995744
69	0xbd143386	-0.03618195
70	0x3ca61a14	0.020276107
71	0xbc8a2843	-0.016864901
72	0xbb3b8e29	-0.002861867
73	0xbd5cd2f9	-0.053912137
74	0xbc2073e1	-0.009793253
75	0xbc93a7c1	-0.018024327
76	0xbd31d8b8	-0.04341957
77	0xbcfd2ff3	-0.030906653
78	0x3c1c4df6	0.009540072
79	0xba44cf94	-0.0007507738
80	0xbd25f789	-0.04051927
81	0xbd4251c2	-0.04744125
82	0xbd46606c	-0.0484318
83	0x3d60cb67	0.05488148
84	0xbc52e261	-0.012871356
85	0xbc8a749c	-0.016901307
86	0xbc8d6461	-0.017259778
87	0xbcf5539e	-0.029947098
88	0xbd623b94	-0.0552326
89	0xbcfaa909	-0.03059818
90	0x3d576b3f	0.052592512
91	0x3cdfe731	0.02733192
92	0xbbbfd77f	-0.0058545466
93	0xbc334d2a	-0.01094369
94	0x3d712076	0.058868848
95	0x3d4cc626	0.049993657
96	0x3d8cca05	0.0687447
97	0x3d024259	0.031801555
98	0x3d0dcd6e	0.03461974
99	0xbb826611	-0.0039794524
100	0xbd7440ee	-0.059632234
101	0xbe1d0101	-0.15332414
102	0x37a321a4	1.944678e-05
103	0x3d423abb	0.04741929
104	0x3dab5eba	0.08367677
105	0xbc900708	-0.017581478
106	0xbda8271e	-0.08210586
107	0x39e9d810	0.00044602202
108	0x3da70c27	0.08156615
109	0x3d03ffa6	0.032226227
110	0xbd32cd1b	-0.043652635
111	0x3d9c70d6	0.07638709
112	0x3d82480f	0.063614
113	0xb8941dca	-7.0627386e-05
114	0x3caecd13	0.021338021
115	0x3af460c4	0.0018644561
116	0xbd1385db	-0.036016326
117	0x3d057eb3	0.032591533
118	0xbcda8c28	-0.02667816
119	0xbd47763a	-0.048696734
120	0xbd15b35b	-0.036548
121	0xbde46077	-0.11151212
122	0xbd0011a2	-0.031266816
123	0xbd497210	-0.049181044
124	0xbd8bee14	-0.06832519
125	0x39538b20	0.00020174356
126	0x3c24b651	0.010053233
127	0x3d7eea4c	0.06223516
128	0x3d0f8ecf	0.035048302
129	0xbc95a3aa	-0.018266518
130	0xbb35618b	-0.0027676548
131	0x3d827c68	0.06371385
132	0x3d4b9be9	0.049709234
133	0x38a6a2f8	7.945852e-05
134	0x3d6b6045	0.057464857
135	0x3ca040f5	0.019562224
136	0x3dcc8e82	0.09988119
137	0x3d81b233	0.06332817
138	0x3d7c589f	0.061607953
139	0x3cf74383	0.03018356
140	0xbcdbde6e	-0.026839461
141	0x3d658926	0.056038998
142	0xbcd255d6	-0.025675695
143	0xbd9fb937	-0.07798999
144	0xbd2293de	-0.0396918
145	0xbdbcadb0	-0.09212816
146	0xbd90da64	-0.07072905
147	0xbd9d5c43	-0.07683613
148	0x3c906025	0.01762397
149	0xbd248ae2	-0.04017151
150	0xbbb9d872	-0.0056715542
151	0x3ceda56d	0.029009545
152	0x3d266d9f	0.040631887
153	0xbca64e75	-0.020301083
154	0x3d062fc5	0.0327604
155	0x3d3eb760	0.0465616
156	0xbd38e8bd	-0.04514383
157	0x3d8af41a	0.0678484
158	0xbcfa3c01	-0.03054619
159	0xbcb3128d	-0.021859432
160	0xbd6f00b8	-0.058350295
161	0x3d4bbc7b	0.049740296
162	0x3b47798c	0.0030437438
163	0x3d1a8ca2	0.037731774
164	0xbc014d87	-0.007892019
165	0x3cc7ae23	0.024375027
166	0xbcbb6fa5	-0.022880385
167	0xbd38b49c	-0.045094118
168	0x3c4875f6	0.012235155
169	0xbbd0d455	-0.006372968
170	0x3a9a5eb7	0.0011777495
171	0xbcb36c4a	-0.021902222
172	0x3c8b708f	0.017021446
173	0x3cc71186	0.024300348
174	0x3c5e3872	0.013563262
175	0xbd1dcf29	-0.03852764
176	0x3d338b7f	0.043834206
177	0xbbde22b5	-0.0067790397
178	0x3ce77607	0.028254522
179	0x3dada47d	0.08478639
180	0xbd0f2cf3	-0.034954976
181	0x3db49048	0.08816582
182	0xbd998794	-0.074965626
183	0x3d3e974e	0.046531014
184	0x3d03a5f4	0.032140687
185	0x3bcd249f	0.006260469
186	0xbd57fdee	-0.0527324
187	0x3d002f37	0.031295028
188	0xbc865657	-0.016398592
189	0xbd40b77d	-0.047049988
190	0x3c7372d4	0.01485892
191	0x3cfc2341	0.03077853
192	0x3dcd80c8	0.10034329
193	0x3d27ba5f	0.04094922
194	0x3dac586d	0.084153034
195	0x3d418746	0.047248147
196	0xbc9f5be8	-0.019453004
197	0xbd029ec3	-0.03188969
198	0x3d19e789	0.037574325
199	0xbd2e26da	-0.04251752
200	0xbc81f80c	-0.015865348
201	0xbd8648f8	-0.065568864
202	0x3d51fa3d	0.051264036
203	0x3cc38871	0.023868771
204	0xbc910977	-0.017704709
205	0x3c2f9d18	0.010718606
206	0xbd3bf57c	-0.04588841
207	0xbbd9fbdb	-0.006652338
208	0x3ce84ccd	0.028356934
209	0xbc8b633a	-0.017015088
210	0x3c4963a0	0.012291819
211	0x3ac3f81d	0.0014951263
212	0x3da0bdf0	0.07848728
213	0x3d8a9595	0.06766812
214	0x3d96788b	0.073472105
215	0x3d4a4543	0.04938246
216	0xbd74e7a5	-0.059791226
217	0x3b62bb8a	0.0034596645
218	0xbb88fc1d	-0.004180445
219	0xbd785bee	-0.060634546
220	0xbb9b74cb	-0.0047441474
221	0xbd58d84d	-0.052940655
222	0xba9e7893	-0.0012090377
223	0x39c15916	0.00036878203
224	0x3d212e2c	0.039350674
225	0xbd3dbeb6	-0.046324454
226	0xbda756fe	-0.08170889
227	0x3d8f8f6c	0.070097774
228	0x3d4068c1	0.0469749
229	0x3cc661ca	0.024216551
230	0x3ac7e4fc	0.0015250738
231	0xbd4cfda6	-0.050046586
232	0x3d3e1b5a	0.046412803
233	0xbd3df51a	-0.046376325
234	0x3a935499	0.0011240422
235	0x3cee45a7	0.029085947
236	0x3d980c2c	0.074241966
237	0x3ba53e74	0.0050428454
238	0xbc90624a	-0.017624993
239	0x3d29dbbb	0.041469317
240	0xbd0c89ca	-0.034311093
241	0xbc1b72fa	-0.009487862
242	0xbd136a98	-0.035990328
243	0xbc984a91	-0.018590244
244	0xbc7dafa5	-0.015483771
245	0xbd7474b7	-0.05968162
246	0xbd392850	-0.04520446
247	0xbd8b469a	-0.068005756
248	0x3cdcad7e	0.026938196
249	0xbd14c010	-0.036315978
250	0xbd2f2461	-0.042759303
251	0x3c91bb9f	0.01778966
252	0xbd521251	-0.051287
253	0x3d1a2973	0.037637185
254	0x3cf46888	0.029835
255	0xbd83d77c	-0.06437585

conv2.bias f4 [20]
0	0x3cec257d	0.02882647
1	0xbc5346e7	-0.012895322
2	0x3d36831d	0.044558633
3	0xbc7460c5	-0.01491565
4	0xbbc03ea3	-0.005866842
5	0xbcacb3c0	-0.021081805
6	0xbd2d5dea	-0.04232589
7	0xbc6bdb97	-0.014395616
8	0xbd4c75a3	-0.049916875
9	0xbc978392	-0.018495355
10	0x3c06c443	0.008225503
11	0xbd40c28c	-0.047060534
12	0xbd51ea9c	-0.05124913
13	0x3d813f8a	0.06310947
14	0xbd1d031a	-0.038333036
15	0xbd743de6	-0.059629343
16	0xbc0343ed	-0.0080118
17	0xbd60233e	-0.05472111
18	0xbd7a2b02	-0.06107617
19	0x3bd9682c	0.0066347327

fc1.weight f4 [50, 320]
0	0xbd61524d	-0.05501013
1	0xbbd1104a	-0.0063801156
2	0x3cbe4ce1	0.023230018
3	0xbc9d4ea3	-0.019202536
4	0x3d70f1ca	0.058824338
5	0xbca1840b	-0.019716283
6	0x3d15e098	0.036591142
7	0x3c47bf31	0.01219158
8	0xbc245fd2	-0.010032611
9	0x3ca3a3fe	0.019975659
10	0x3d6e0b1e	0.05811607
11	0x3d1f6a02	0.038919456
12	0x3ba3421c	0.004982246
13	0xbd9da4cc	-0.07697448
14	0x3bd3bfab	0.0064620576
15	0x3ad8e177	0.0016546686
16	0xbd276261	-0.040865306
17	0x3cdb848d	0.026796604
18	0xbc82dc53	-0.0159742
19	0x3c0e6b52	0.008692579
20	0x3d05a24c	0.03262548
21	0x3ba59426	0.005053061
22	0x3d2ba6aa	0.04190699
23	0xbbc776c8	-0.006087158
24	0x3c87096c	0.016483985
25	0xbd9eb22e	-0.07748829
26	0x3d375f44	0.044768587
27	0x3cfaa10b	0.03059437
28	0xbc284731	-0.01027088
29	0xbd2ee319	-0.042697046
30	0x3cddacdd	0.027059967
31	0x3ccffd48	0.025389329
32	0xbd040cc2	-0.03223873
33	0xbc030bee	-0.00799845
34	0xbd99c4de	-0.075082526
35	0xbd8bd594	-0.06827846
36	0x3c68537b	0.01418006
37	0x3cf24086	0.029571783
38	0x3d630478	0.055424184
39	0x3d6145f8	0.054998368
40	0x3d37f34f	0.04490977
41	0xbc8f0b2a	-0.017461378
42	0xbca172c4	-0.019708045
43	0xbcb57f88	-0.022155538
44	0x3b2e0769	0.002655471
45	0xbd013edc	-0.031554088
46	0x3da10295	0.078618206
47	0xbcd87b05	-0.026425848
48	0xbcf23d9c	-0.029570393
49	0x3d4a6df7	0.049421277
50	0x3d3db573	0.04631562
51	0x3d20e307	0.03927901
52	0xbd027c91	-0.031857077
53	0x3b6a14cf	0.003571797
54	0xbd297aa9	-0.041376743
55	0x3d32e1f4	0.043672517
56	0xbcbda2fd	-0.023149008
57	0xbd2c68b0	-0.042092025
58	0xbd9c5366	-0.076330945
59	0xbd4ca4f6	-0.049962007
60	0xbd027555	-0.031850178
61	0xbc85e8ea	-0.016346414
62	0x3cf35752	0.029704724
63	0xbd8a3857	-0.06749027
64	0x3d0e39c0	0.034723043
65	0x3d0c4f61	0.03425539
66	0x3ccc24ea	0.024919946
67	0xbc03af61	-0.008037419
68	0xbcad3f54	-0.021148361
69	0xbc17d86f	-0.00926791
70	0xbd47c695	-0.048773367
71	0xbc5b3da8	-0.013381399
72	0xbbda87ea	-0.0066690343
73	0xbc80be19	-0.015715646
74	0x3cb1c4e0	0.021700323
75	0x3d0e1f06	0.034697555
76	0x3c2a4d68	0.010394432
77	0x3d43144f	0.04762679
78	0x3be2f087	0.0069256458
79	0xbc9095af	-0.0176495
80	0xbcfcc98b	-0.030857822
81	0x3d9dfcf5	0.07714263
82	0x3b731614	0.0037092017
83	0xbd9e9e26	-0.07745008
84	0xbcdc5ab6	-0.026898723
85	0x3c8471ae	0.016167488
86	0xbd1bc752	-0.038031884
87	0x3c3be073	0.011467087
88	0xbc829cbe	-0.015943881
89	0x3b213873	0.0024600297
90	0x3c6e2675	0.014535536
91	0xbc5fcf2d	-0.013660234
92	0xbbcd58a2	-0.0062666694
93	0x3d590d26	0.052991055
94	0x3d88d680	0.06681538
95	0xbcc12251	-0.023575934
96	0x3c280517	0.01025512
97	0x3d22d6e4	0.039755717
98	0xba33b581	-0.00068553543
99	0xba9a1d8a	-0.0011758071
100	0x3d6ea382	0.058261402
101	0xbc1c2111	-0.009529368
102	0xbcb64c00	-0.022253036
103	0x3d7b6b81	0.06138182
104	0x3c22c7ae	0.009935303
105	0xbd1487f0	-0.036262453
106	0x3d416f23	0.04722513
107	0x3d5484e1	0.051884536
108	0x3d433916	0.047661863
109	0x3a9caf12	0.001195403
110	0xbbe19250	-0.006883897
111	0x3d121513	0.03566463
112	0x3be3fb5c	0.0069574546
113	0xbd69672e	-0.056983165
114	0x3d6a8437	0.057254996
115	0xbbd204ef	-0.0064092795
116	0x3ae8a6c7	0.0017749899
117	0xbae9a7a4	-0.001782645
118	0xbbe1687d	-0.006878911
119	0x3d1c5f94	0.038177088
120	0x3cb5c41e	0.022188243
121	0x3c99b2f6	0.018762093
122	0xbd9a1c44	-0.075249225
123	0x3d374144	0.044739977
124	0xbbe89e8e	-0.0070989793
125	0xbd1b7e0e	-0.037962012
126	0xbbf21d95	-0.0073887804
127	0xbada6b63	-0.0016664084
128	0xbd0e536a	-0.03474752
129	0xbbc13c0f	-0.005897052
130	0x3cbb5f96	0.022872727
131	0xbcebf43c	-0.028802983
132	0x3ce787b8	0.028262958
133	0x3d1d7450	0.038441002
134	0x3cec6542	0.028856877
135	0x3cefef25	0.029288838
136	0x3d1009de	0.03516566
137	0xbd151e21	-0.036405686
138	0xbc81a7c5	-0.015827069
139	0x3d43aae9	0.047770415
140	0xbccc5b3d	-0.02494585
141	0xbb79ec48	-0.003813522
142	0xbd12049c	-0.035648927
143	0xbc6d147e	-0.014470218
144	0xbd09ba9f	-0.03362524
145	0xbc9b0e57	-0.018927736
146	0xbcbebae7	-0.023282481
147	0x3ce57b6c	0.028012954
148	0x3cf78344	0.03021396
149	0xbc0c9b4b	-0.008581947
150	0x3bf59c0d	0.0074954093
151	0xbd2e67f5	-0.04257961
152	0x3d07f549	0.033192907
153	0xbc54d1ea	-0.012989501
154	0x3c75515d	0.014973012
155	0x3d81fd9b	0.063471995
156	0x3d0f7998	0.03502807
157	0x3ca66829	0.02031334
158	0x3d3f0654	0.046636894
159	0x3cc36e9b	0.023856452
160	0x3b05310b	0.0020323421
161	0xbb96d45a	-0.004602951
162	0xbd090a3e	-0.033457033
163	0x3c97a31e	0.018510398
164	0x3bd745b0	0.0065695867
165	0x3c8f9523	0.017527169
166	0x3da5553e	0.08072899
167	0xba326da1	-0.0006806497
168	0xbd3b056e	-0.045659475
169	0x3d3ed405	0.046588916
170	0xbc86568b	-0.016398689
171	0x3d2efd5d	0.042722095
172	0x3d45aa8e	0.048258357
173	0x3ca861d4	0.02055446
174	0x3cde02b8	0.027100906
175	0xbca52baa	-0.020162422
176	0xbc303108	-0.010753877
177	0xbda96f51	-0.08273185
178	0xbd3416c4	-0.043967023
179	0xbd97daee	-0.074148044
180	0x3c8655a4	0.016398259
181	0x3d3c934c	0.04603891
182	0xbb3c3e61	-0.0028723704
183	0xbd51caf6	-0.05121895
184	0x3cf87a36	0.030331712
185	0xbd266519	-0.040623758
186	0x3c8160de	0.01579326
187	0x3d18bbec	0.03728859
188	0x3d0be257	0.0341514
189	0x3d14ba77	0.03631064
190	0xbafc4b02	-0.0019248428
191	0x3d862962	0.06550862
192	0xbcd72162	-0.026261035
193	0x3c68187e	0.014165996
194	0xbcb350f9	-0.021889197
195	0x3b1b9e5e	0.0023745517
196	0x3c007369	0.007840016
197	0x3d3c2e0c	0.04594235
198	0x3cb078f4	0.02154205
199	0x3c5b84ce	0.013398362
200	0xbc1d0030	-0.009582564
201	0xbd80f8e9	-0.06297476
202	0xbcb0e961	-0.021595659
203	0xbc23fb05	-0.010008578
204	0x3c8d21d6	0.017228048
205	0x3b82af50	0.003988184
206	0x3c9a0a65	0.018803785
207	0xbce888b6	-0.028385501
208	0xbd30160c	-0.042989776
209	0x3d4f40d0	0.05059892
210	0x3d5650a2	0.05232299
211	0x3cf86ec5	0.030326257
212	0x3cb4356c	0.02199813
213	0xbdb33a28	-0.08751327
214	0xbd05ad47	-0.032635953
215	0xbb958c95	-0.004563878
216	0xbd8d62f2	-0.06903638
217	0x3ce50c8e	0.027960088
218	0x3c5b5849	0.013387748
219	0xbd10219f	-0.035188314
220	0xbdc2396d	-0.09483609
221	0x3c7f5f12	0.015586631
222	0x3c6f7e0a	0.014617452
223	0xbd00aac5	-0.03141286
224	0x3ca2c896	0.019871037
225	0x39470d83	0.00018983152
226	0xbd9a7b97	-0.07543104
227	0xbd83f818	-0.064438045
228	0x3c275ab9	0.010214501
229	0xbd57b483	-0.052662384
230	0xbd5487e4	-0.051887408
231	0xbb9d604e	-0.00480274
232	0xbccd4bf7	-0.025060637
233	0x3d312b45	0.043254156
234	0xbc309fdd	-0.010780302
235	0xbb2b8a1c	-0.002617485
236	0x3c95675c	0.018237762
237	0x3d03a15b	0.032136302
238	0xbc805486	-0.015665304
239	0x3d69e097	0.05709895
240	0x3d2698c3	0.04067303
241	0x3d6116ef	0.05495351
242	0xbd0adad7	-0.03390011
243	0xbd703a7d	-0.05864953
244	0xbd8b53d8	-0.06803101
245	0x3c570f05	0.0131261395
246	0x3c55a8fb	0.013040776
247	0x3da15245	0.0787702
248	0xbc266f5f	-0.010158389
249	0xbac2e7f7	-0.0014870156
250	0x3d0c8bc2	0.03431297
251	0xbabcb838	-0.0014398163
252	0x3c993971	0.018704148
253	0xbc9c72c1	-0.019097688
254	0xbd1df645	-0.03856494
255	0xbd5a4763	-0.053290736

fc1.bias f4 [50]
0	0x3d459848	0.04824093
1	0x3cf17bae	0.02947792
2	0xbba1c7ac	-0.004937133
3	0xbb88b483	-0.0041719093
4	0x3c900248	0.017579213
5	0xbc5c1624	-0.013433013
6	0x3b034032	0.0020027277
7	0xbd0f9a97	-0.035059538
8	0x3c6b0f8c	0.014346968
9	0x3c2a6aa6	0.0104014035
10	0x3cca440c	0.02469065
11	0x3d4c4dfb	0.049879055
12	0xbc9e6a4b	-0.019337794
13	0xbb1c8820	-0.0023884848
14	0xbc0d65ef	-0.00863026
15	0xbd37f1ac	-0.04490821
16	0x3d510889	0.05103353
17	0x3ca71885	0.020397434
18	0x3d83590b	0.06413468
19	0xbd199ac6	-0.03750112
20	0x3c5ee58f	0.013604536
21	0x3c95ef5f	0.018302618
22	0xbcf87740	-0.0303303
23	0x3d1a70c7	0.03770521
24	0x3d1250dd	0.03572165
25	0xbb36cae2	-0.0027891924
26	0x3d92d536	0.07169573
27	0xbcd4f533	-0.025995826
28	0xbd283a6f	-0.04107135
29	0xbd122cf2	-0.035687394
30	0xbd0ee005	-0.03488161
31	0x3d2b886d	0.041878153
32	0x3bc03acd	0.0058663846
33	0xbd19fa52	-0.03759224
34	0xbd35a73f	-0.04434895
35	0x3d981ee6	0.074277684
36	0x3bc650ab	0.006052097
37	0xbd6d055d	-0.057866443
38	0x3cc592c5	0.024117837
39	0xbcea5cd8	-0.028608724
40	0x3c45962e	0.012059731
41	0x3d8988b4	0.06715527
42	0x3d203ad1	0.03911859
43	0xbd1a19a3	-0.037622105
44	0xbcc3ccf9	-0.02390145
45	0x3c9883e9	0.018617587
46	0xbd2f4639	-0.04279158
47	0xbd574e21	-0.052564744
48	0x3d5cc89e	0.05390226
49	0x3ced153e	0.028940793

fc2.weight f4 [10, 50]
0	0x3e1b4133	0.1516159
1	0xbdafba13	-0.08580413
2	0x3e0bc3bc	0.13648885
3	0x3c97ccb9	0.018530237
4	0xbdca9263	-0.09891202
5	0xbd29cf08	-0.041457206
6	0xbe3b61ed	-0.18299074
7	0xbe1312ea	-0.14362684
8	0xbd9d90cb	-0.07693633
9	0xbdc2856b	-0.09498104
10	0xbe57c014	-0.21069366
11	0xbdda30a6	-0.1065381
12	0xbd81c032	-0.063354865
13	0x3de4a506	0.11164288
14	0x3e530977	0.2060908
15	0x3de5ee4e	0.11227094
16	0x3c6e1a93	0.014532703
17	0x3e31376d	0.173063
18	0x3e0fe4f8	0.14052188
19	0xbd30d6af	-0.04317349
20	0xbd1e01e7	-0.038576033
21	0xbe0521b5	-0.1300114
22	0xbd82b2ac	-0.06381735
23	0xbe475682	-0.19466594
24	0xbd8ffb80	-0.07030392
25	0xbe42d935	-0.1902817
26	0xbe2e6927	-0.170323
27	0xbe66bcb2	-0.22532919
28	0x3dd43db8	0.103633344
29	0x3e876da3	0.26450834
30	0xbe3e9eed	-0.18615313
31	0xbd514417	-0.051090326
32	0x3e3cd815	0.18441804
33	0x3dafe0d9	0.08587808
34	0xbddb848f	-0.10718643
35	0x3e3c1b1b	0.18369715
36	0x3e1bff76	0.1523417
37	0x3db2dedd	0.08733914
38	0xbd20874b	-0.039191525
39	0xbe1a63ce	-0.15077135
40	0xbdd93470	-0.10605705
41	0xbe487c04	-0.19578558
42	0x3dcffa3c	0.1015515
43	0xbd97ee82	-0.07418539
44	0x3d155803	0.036460888
45	0x3e436753	0.19082384
46	0xbd6413e0	-0.055683017
47	0xbcfff0f3	-0.031242823
48	0x3da3f3e6	0.08005504
49	0x3cadae0d	0.021201158
50	0xbd0b6d0a	-0.034039535
51	0x3e15a220	0.14612627
52	0xbe352000	-0.17687988
53	0x3dd9377b	0.10606285
54	0x3dbc0ae6	0.09181766
55	0x3e0414a3	0.12898497
56	0xbe3cac10	-0.18425012
57	0x3d711beb	0.058864515
58	0x3c0dea36	0.008661797
59	0xbe07d71b	-0.1326565
60	0x3e182547	0.1485797
61	0x3e3f5895	0.18686135
62	0xbdd21519	-0.1025793
63	0xbe2272d7	-0.1586412
64	0xbadc15ce	-0.0016791166
65	0xbe727ed0	-0.23681188
66	0x3e151ffb	0.14562981
67	0xbbc7e926	-0.0061007915
68	0xbe4082f2	-0.18799952
69	0x3adc05bd	0.0016786378
70	0xbdcd8b77	-0.100363664
71	0x3cf4eff8	0.029899582
72	0x3e0d9e89	0.13830008
73	0x3e2b05d7	0.16701446
74	0x3e204acf	0.15653537
75	0xbe808d20	-0.2510767
76	0xbe734f8d	-0.23760815
77	0x3e1293cb	0.14314191
78	0x3ddb8ca0	0.107201815
79	0x3d95da0b	0.07316979
80	0x3e15416a	0.14575735
81	0xbd370d77	-0.044690575
82	0xbe40643c	-0.18788236
83	0xbe0be920	-0.13663149
84	0x3e1f0169	0.15527882
85	0x3cd9f1b2	0.026604507
86	0xbe016151	-0.1263478
87	0xbd5df85a	-0.054191925
88	0x3de6513b	0.11245962
89	0x3dd5a267	0.104313664
90	0xbd204951	-0.03913242
91	0x3e1037b5	0.1408375
92	0xbda28382	-0.079352394
93	0xbe526cd3	-0.20549326
94	0x3e044698	0.12917554
95	0xbe004ce5	-0.12529333
96	0xbe12cdbb	-0.14336292
97	0x3e23d911	0.16000773
98	0xbe4eea88	-0.20206654
99	0x3d03b038	0.032150477
100	0xbd1d5353	-0.038409542
101	0xbc82d94e	-0.01597276
102	0xbdf91c08	-0.1216355
103	0xbd8779e1	-0.066150434
104	0xbd96d830	-0.07365453
105	0x3e25ec93	0.16203527
106	0x3db3eb09	0.08785064
107	0x3bf056b4	0.0073345546
108	0x3e596911	0.21231486
109	0x3d0db53a	0.03459666
110	0xbaa22213	-0.0012369774
111	0x3e69d2a1	0.22834255
112	0x3d521bc6	0.051296018
113	0x3e04084f	0.12893794
114	0x3e1dc1c9	0.15405954
115	0x3daa3aa6	0.083119676
116	0x3b8992e3	0.0041984185
117	0xbc89e7b4	-0.016834117
118	0xbdd46ce0	-0.10372329
119	0xbdea6a9d	-0.11446116
120	0xbd24c46d	-0.04022639
121	0x3d88753f	0.06662988
122	0xbdfce144	-0.123476535
123	0xbe111439	-0.1416787
124	0xbdb05578	-0.08610052
125	0xbdbe9329	-0.09305412
126	0xbe2bd330	-0.1677978
127	0x3da59bd4	0.080863625
128	0xbe321297	-0.17389904
129	0xbc83d811	-0.01609424
130	0xbe0ac326	-0.13551006
131	0xbd3d5b36	-0.046229564
132	0x3d831e13	0.064022206
133	0xbdc10dbd	-0.094264485
134	0x3db2bdd7	0.08727615
135	0x3e37b652	0.17940643
136	0xbdbd9d75	-0.09258548
137	0xbe0d831c	-0.13819546
138	0x3e14450c	0.14479464
139	0x3d9ffcaf	0.078118674
140	0x3e1311ac	0.1436221
141	0x3e281960	0.1641593
142	0xbd9c368d	-0.07627592
143	0xbd2fc93d	-0.042916525
144	0x3c833879	0.01601814
145	0x3e304efd	0.17217632
146	0x3db2d9fa	0.08732982
147	0x3d9917fe	0.07475279
148	0xbe126b3d	-0.1429872
149	0x3e1bd82d	0.15219183
150	0xbca8a03a	-0.020584214
151	0x3e15e994	0.14639884
152	0x3de6da71	0.11272133
153	0xbdaf1b6c	-0.08550152
154	0x3cb7b4b6	0.022425037
155	0xbe32c897	-0.17459331
156	0x3db049fd	0.08607862
157	0x3d846dc2	0.06466247
158	0x3cebe9d3	0.02879802
159	0xbccc8de1	-0.024969997
160	0xbd1df784	-0.038566127
161	0x3e7a96b5	0.24471553
162	0xbe032219	-0.12805976
163	0x3c89b6c6	0.016810786
164	0x3be17f49	0.0068816287
165	0xbd5061f9	-0.050874684
166	0xbdf02eaf	-0.11727654
167	0x3aac94ae	0.0013166869
168	0xbe000bf0	-0.12504554
169	0x3e272589	0.16322912
170	0x3e24044b	0.16017263
171	0x3e2fddce	0.17174456
172	0x3d63b371	0.05559105
173	0xbd6469b1	-0.055764858
174	0xbe0a3685	-0.1349736
175	0xbe03981c	-0.12850994
176	0x3dcb8f76	0.099394724
177	0xbdb639cc	-0.08897743
178	0x3dc47e62	0.09594418
179	0xbdf1e8cd	-0.11811981
180	0xbe614d78	-0.22002208
181	0x3e2bf4c3	0.16792588
182	0xbddb49b7	-0.10707419
183	0x3deaad13	0.114587925
184	0x3d65b801	0.056083683
185	0x3dad7bff	0.08470916
186	0x3e10fea4	0.14159638
187	0x3ccf887e	0.02533364
188	0xbe37040e	-0.1787264
189	0xbc320a86	-0.010866767
190	0x3dcdb125	0.10043553
191	0x3e1b82b9	0.15186585
192	0xbe234316	-0.1594356
193	0x3dd5ccbd	0.10439441
194	0x3dc33d0b	0.095331274
195	0x3cebc786	0.028781664
196	0xbdf46bcb	-0.119346224
197	0xbd27ea39	-0.040994857
198	0xbd9a7fa7	-0.07543879
199	0x3e222052	0.15832642
200	0x3c415219	0.011799359
201	0xbc940ad3	-0.018071568
202	0xbc8758ec	-0.016521893
203	0x3d7e6e64	0.062116995
204	0x3cf1e7de	0.029529508
205	0x3e1f7faf	0.15576051
206	0x3e14b0aa	0.14520517
207	0xbdf28717	-0.118421726
208	0xbd88258a	-0.06647785
209	0xbdeef1a3	-0.11667182
210	0x3e364151	0.17798354
211	0xbc17735d	-0.009243813
212	0x3e4f6460	0.20253134
213	0xbe57b0d8	-0.21063554
214	0xbcd361ca	-0.025803465
215	0x3de49a12	0.11162199
216	0xbdc696b4	-0.09696713
217	0xbe058a83	-0.1304112
218	0xbc946beb	-0.018117866
219	0xbdeda6c2	-0.11604072
220	0xbe0b29af	-0.1359012
221	0xbe19c0b8	-0.15014923
222	0x3e307b16	0.17234454
223	0x3e276940	0.16348743
224	0x3df7fcd7	0.12108772
225	0x3e10e4f5	0.1414984
226	0x3d4a58cc	0.04940109
227	0xbcddb8a6	-0.027065586
228	0x3d8f9344	0.070105106
229	0xbcecab76	-0.028890353
230	0x3dd3883c	0.10328719
231	0x3e158810	0.14602685
232	0xbe1f1b85	-0.15537842
233	0xbe60efa7	-0.2196642
234	0xbdb24bd2	-0.08705868
235	0xbde8c19e	-0.113650545
236	0xbd387ebc	-0.04504274
237	0x3e704345	0.23463161
238	0x3cea2b36	0.028585058
239	0xbd3dfe88	-0.046385318
240	0xbe4187e7	-0.18899499
241	0xbdd63824	-0.10459927
242	0x3dce7e52	0.100826874
243	0x3d0554f3	0.032551717
244	0xbe132b5f	-0.14372014
245	0x3912366a	0.00013943916
246	0xbdb93706	-0.09043698
247	0xbe15a834	-0.14614946
248	0x3e3f6652	0.18691376
249	0xbdf86cdb	-0.121301375
250	0x3d01045c	0.031498298
251	0xbd69fbee	-0.057125024
252	0xbb6283b9	-0.0034563376
253	0xbe0114af	-0.12605546
254	0xbb55f9fc	-0.0032650223
255	0xbd4272fb	-0.047472935

fc2.bias f4 [10]
0	0xbd9f80af	-0.07788216
1	0x3d82838c	0.06372747
2	0xbd165627	-0.036703255
3	0xbe1e67de	-0.1546931
4	0x3be60ef3	0.007020825
5	0x3d8b0422	0.06787898
6	0xbd98f8f4	-0.07469359
7	0xbd9c19f0	-0.07622135
8	0x3cbf481e	0.023349818
9	0xbd249d60	-0.040189147
